td3_water.onnx (onnx, 500889 bytes, 6 tensors)

actor.mu.0.weight f4 [400, 6]
00000000: bdcd 98be 2cc8 e6be 064b 84be fdf2 8d3e
00000010: f739 753e 4e41 84be e8b4 4fbe b595 fcbd
00000020: 25d8 bfbd de98 b6bd d20d 5c3d 42f0 adbe
00000030: 741c d93e 01ff c73d 1e87 73bf 459f 653e
00000040: 02a2 24bf 19a2 b5be c6d4 3b3e cb15 bebe
00000050: 5567 febe 66b6 db3e 6b59 8cbf bb80 153f
00000060: 1b52 a6be 2bab 0b3f dc27 1f3f 1d0f 3ebe
00000070: d486 5cbe 2e8e 0fbe ba0e 48bf 8d9f c83e
00000080: 2254 acbe f828 9d3d 1b7b e73e 2bb2 933e
00000090: 0c33 95be 61a9 46bd 83e9 c2bd 34e5 773e
000000a0: e781 b1be 3ab9 95be 5255 0bbe 1494 36bf
000000b0: 358a 63be c57e 863e d8e8 0dbe 81e8 5ebe
000000c0: d512 513d 3b8f 0c3d cf78 8fbe d08f 66be
000000d0: fab3 82bc db5c 3fbe a642 883e 9982 193f
000000e0: a2a9 babe 3a16 9cbe 54b6 cbbe b597 52bd
000000f0: 2734 aebe ca21 3c3f 6503 21be eb0b 2b3d
00000100: 0188 923c e69b 89be 2237 d6be f4ee ba3e
00000110: 0fc0 30bd a542 9fbe e8be 6a3f 40de e3bd
00000120: f96b e23e 9b80 a8be c399 8abe 1d1b 5abc
00000130: d92f dabf 2887 af3d 4b17 3d3d 969e 0c3e
00000140: 625b 813d 558b 08bd 747e 33be 84c6 bd3d
00000150: b8d8 32be 1e24 fb3d 87ba 05be bb66 8a3d
00000160: b282 8a3f fe4a 043e fc2e a1bc 69a8 b6be
00000170: 3494 a8be 37cf 353d 7196 9abe c333 5e3e
00000180: b608 2abd 6ede 3cbe c481 2a3e 2a26 563d
00000190: 877b c53e a2b0 623f a748 cf3d 5a41 ad3e
000001a0: fcaa d0be aee1 8bbd 61df 85be c6aa 6abe
000001b0: 842a 6c3b 9439 17bf e30b 1e3d 8ab6 d7be
000001c0: 696c 113f d334 943e 88b1 9ebe b7f8 a5bd
000001d0: 64b2 47bf 6bb2 7dbe 0def 123f da92 15be
000001e0: b4fd 99be e317 193f 68b5 0abf 4d06 d73e
000001f0: 0e99 bf3d 80dc b53e 012e d03d e791 2b3e
00000200: 8964 2ebf 4221 11bf 04d5 b33e 3591 14bf
00000210: d026 c4bd f3fd 1abe 3627 89be 16db 20be
00000220: cbde 533d e43b 953f f22c 09bf 23e8 87be
00000230: 15a1 3ebe 7796 fa3e 1e04 bfbe 0874 78be
00000240: 53fa 86bd e834 42be aa80 26be da7f 313f
00000250: 47a0 293f 5b47 7b3e 7d40 233f 4764 2bbf
00000260: fe37 1e3f f421 9cbe f34c d0be 9ee8 853c
00000270: 3c93 853d ec7f 953d 1231 48be 1df0 f7bd
00000280: 4044 06c0 a970 00be 0a36 e63c 9a20 e93d
00000290: de7a a1bf c8cb 9fbe 33a6 e93e 7e30 5b3e
000002a0: b451 b93d 7178 ea3d c382 97bf 2607 a0be
000002b0: ef6d c1be 8b40 d3be 985c 5bbe 6351 1fbe
000002c0: 87a1 8ebf fabd f0be d062 9d3e 4458 6fbe
000002d0: 3d7e cebe dca1 763d 8afc d5bd 1a38 3abe
000002e0: 1872 4e3d d132 9cbe 7ab7 803e 7387 803e
000002f0: c288 153e a11c 84bd 037a a8bf 781a 29bf
00000300: 3e61 63be 90f0 123f 9f37 e63e 4545 d23d
00000310: cb4a 80be d5e2 32be bb4b 29bf d353 823d
00000320: a564 02bf 6e24 573e 193f fcbe 318d be3e
00000330: a83e 5abe ea5f 943e 45f4 13be e879 6bbe
00000340: 6740 16be c061 b9be 3a15 8d3e 3235 2fbf
00000350: cf85 fdbd 4cf7 c03d 3637 c83d b64e b53e
00000360: 9574 30be 4349 9abe b358 d0bf ba20 333e
00000370: f333 933e 01d5 ba3e a8d3 3b3f ca25 a9be
00000380: c738 93be 6e0b f3be afca 65be ac8c 7bbe
00000390: b7aa b43e 93f6 01bf dd99 733e 3a3d 03be
000003a0: 2514 cb3e e961 13be b298 183e b69d 713e
000003b0: c67c 943e 40e3 12bf 5ee8 21bf 8aa7 10bf
000003c0: a298 46be 38ed 27bf b1ec 9ebe 299b 0fbc
000003d0: 52be 533e a504 263e 0761 eebe 05a1 f73e
000003e0: e1a1 02bf 3370 bebe 7115 dcbe 8327 2b3f
000003f0: e438 f2be d36f debe 5e3f fe3d e8c5 bc3e
-0.29844466 -0.45074594 -0.25838488 0.27724448 0.23947893 -0.25831074 -0.20283854 -0.12333242
-0.09367398 -0.08915876 0.053724118 -0.33972365 0.4240452 0.09765435 -0.9512805 0.22424038
-0.64309704 -0.35475233 0.18342885 -0.37126002 -0.4968821 0.42912596 -1.0964788 0.5839955
-0.32484517 0.54558057 0.62170196 -0.18560453 -0.21535808 -0.14019081 -0.7814747 0.39184228
-0.33657938 0.0767383 0.4521111 0.2884687 -0.29140508 -0.048501376 -0.09517195 0.24208528
-0.3466942 -0.2924288 -0.13606766 -0.713197 -0.2222069 0.26268592 -0.13858354 -0.2176838
0.05104335 0.034316283 -0.28021857 -0.22515798 -0.01595496 -0.18687765 0.2661335 0.599649
-0.36457545 -0.30485708 -0.39787543 -0.05141421 -0.34024164 0.7348906 -0.15723951 0.041759413
0.017887117 -0.26876754 -0.41838938 0.36510432 -0.04315191 -0.31105533 0.9169755 -0.11126375
0.44223002 -0.32910618 -0.27070436 -0.013312128 -1.7045852 0.08570701 0.046164792 0.1373237
0.06316258 -0.033336002 -0.17528707 0.092663795 -0.17465484 0.12262748 -0.13059436 0.067578755
1.0821135 0.12919232 -0.019675724 -0.35675362 -0.3292557 0.04438707 -0.30192903 0.21699433
-0.041512214 -0.18444225 0.16651064 0.05228249 0.38570806 0.8855077 0.10121279 0.33838922
-0.4075545 -0.06830154 -0.26146987 -0.22916707 0.0036036083 -0.5907223 0.038585555 -0.42131454
0.56806046 0.28946552 -0.3099482 -0.08104079 -0.7800658 -0.24775092 0.5739601 -0.146068
-0.30076373 0.59802073 -0.54183054 0.41996995 0.09355365 0.3551979 0.101650245 0.16754876
-0.68122154 -0.5669137 0.35123456 -0.5803407 -0.095777154 -0.15135936 -0.26787728 -0.15708575
0.051726144 1.1658902 -0.53584206 -0.26544294 -0.18616135 0.4894292 -0.3730783 -0.24263012
-0.06590714 -0.18965495 -0.16260019 0.6933571 0.6626019 0.24538939 0.63770276 -0.66949886
0.6180419 -0.30494654 -0.40683708 0.016346272 0.06522223 0.0729979 -0.19549969 -0.12106345
-2.0979156 -0.12542976 0.02810194 0.113831714 -1.2615621 -0.3121016 0.45634612 0.21405217
0.09048787 0.114487536 -1.183678 -0.31255454 -0.37779185 -0.4126018 -0.2142204 -0.1555839
-1.1143044 -0.4701994 0.3073945 -0.23373514 -0.40330687 0.060212955 -0.10448559 -0.18185464
0.050401777 -0.3050752 0.25139982 0.2510334 0.1460295 -0.06450773 -1.3162235 -0.66056013
-0.22205064 0.5739832 0.4496431 0.10267118 -0.25057063 -0.17469342 -0.6613118 0.063636445
-0.5093482 0.2100999 -0.4926689 0.37217095 -0.21312964 0.28979427 -0.1444865 -0.22995722
-0.14673005 -0.3620739 0.27555257 -0.68440545 -0.123790376 0.09422168 0.09776156 0.35411614
-0.17231973 -0.3013402 -1.6277069 0.17492953 0.28750572 0.36490634 0.73369837 -0.33036643
-0.28754255 -0.47469658 -0.22440599 -0.24565381 0.35286495 -0.5076687 0.23789163 -0.12816325
0.39663807 -0.14392819 0.14901999 0.23595318 0.29001445 -0.57378006 -0.6324519 -0.56505644
-0.19394162 -0.6559634 -0.31039956 -0.00876502 0.2067807 0.16212709 -0.465584 0.48365036
-0.5102826 -0.37194976 -0.42985108 0.66857165 -0.4730903 -0.4344469 0.1241443 0.3686974

actor.mu.0.bias f4 [400]
00000000: c4e7 e1be c9d1 4dbc 7b2a f6bd ce96 223d
00000010: ed87 6dbe 601c 7b3c 6b24 4bbe d2ca b23e
00000020: bf54 18bd 6ec7 5dbe 3254 aabe 24d5 75be
00000030: 669e 863d 6945 cabe df74 d0be 1ed1 b3be
00000040: 3673 39bf 7976 c0be 6472 9c3e 24ec 1d3e
00000050: 39b9 76be 9673 b73e 1985 6a3c d5eb 873e
00000060: 45e2 ddbe 299f 323e 3b39 cf3d c83f 8e3d
00000070: 1ee9 8f3e 6b28 c43e e2f9 a3bd 3f94 4ebe
00000080: 6d4c c5be 0827 a73e 6746 4bbe 909f bc3d
00000090: c88a c43d 8dd9 663d 6dbc ccbd 7cd1 7c3e
000000a0: da43 9f3e 6486 9d3e d4f7 2b3e 1dff 153f
000000b0: 7094 0cbe 9ba9 c4be 4812 c33d 56b3 d93e
000000c0: eb9e 5dbd 179a fd3d 4147 89be f9e5 89be
000000d0: 5d69 8b3e 7d57 81bd 323a 913e b122 2f3e
000000e0: 6df1 953e 0045 99be 4cfd 00bf 7cfd 76be
000000f0: 452d c8be c000 1e3d 05b8 833d 2096 53bd
00000100: 6a00 2e3e 843a 58be 0baa f1bd 03a7 473e
00000110: f023 abbd 679a 6fbe 0e81 b73e 1cba c0be
00000120: 857e 7ebe ed28 3e3d ec54 89be d21e debe
00000130: 24f5 2dbe 6a99 f8bd 0e46 d73e 3167 62be
00000140: 0bff 583e acd1 babe 4e1e 843d 263e b93e
00000150: 0d5e bcbe f6ce ac3e ea36 fdbe 5c75 69be
00000160: 8bab c2bc 5034 2c3e 3f8a d7be b216 333e
00000170: e184 033e 5287 863e 973c 96be cf4d 92bc
00000180: 9501 7b3e 6794 96be f4f5 873e 3267 cabe
00000190: 01e7 c73c 5a7d b23e d645 783d 77b1 873e
000001a0: 88e7 9abe 1caf 0cbf 2833 023d abda d93e
000001b0: 303c 21be 5833 bbbe 2d70 0dbf 4848 8b3e
000001c0: 5633 03bf c065 adbe 0959 e6be 6d95 f6be
000001d0: 8371 c33e 74d3 97bd 64c8 e93e a890 ca3e
000001e0: 56af ff3d 0cf4 9e3e 1390 92be feed db3e
000001f0: 8081 843d e610 c83d f08a aebe 3d16 babe
00000200: 20ad 5dbe c188 8bbe 9345 08be b292 b8be
00000210: fd8b 99be f301 77be 18c8 873d 9c5d 993e
00000220: 40fe e53d 0c37 22be 931f 69bc b550 bebd
00000230: fc36 3eba 89e6 95be dace e0bd 0444 19be
00000240: 67c1 863e e62e 183e a511 f4be 0e14 d03e
00000250: 69b2 28bd 2f11 393e 0a20 993e 3489 cf3e
00000260: 34f0 3f3e 3b7a d03e dc36 9dbe 7805 1b3c
00000270: 8a57 02bf 90af 9dbe 1f52 d83b e4f9 143e
00000280: 1f7e 3c3e ecbb 41bd c105 efbe a250 953d
00000290: e48b a8bd 1326 533e 3ce7 f1be 0e08 d2be
000002a0: 053b a13d dc94 c8be 6b36 7abd 7baa 323e
000002b0: 6f06 55be 433b 933d e4e6 17be a745 e3be
000002c0: 76a2 70bc 8da4 d0b8 2a16 19be 0b81 bcbe
000002d0: 11fa 93be 3656 36be d51a b13e 81ed d13e
000002e0: 3b65 5cbe 899a b4be f4ea e6be 5ec6 32be
000002f0: 1845 60bd 5812 07bf bb1b 26bf e5c0 573d
00000300: 101e a4be d73b c13e 37c9 c5be f90b 403e
00000310: 042b bebd e07d e13d 2ce7 c6be c95d d63e
00000320: e8d0 a8be be46 59be 4a27 7b3c 3716 50be
00000330: 3249 81be 8884 d0be eef5 90be f5c8 663e
00000340: db38 93bd 6ae9 a1be b655 4e3e 8c0b 5b3e
00000350: 9267 83be 3ee6 63bd 4560 d23e 8554 983e
00000360: 9aa0 9ebe fe7e de3d d61f 8ebe 066a c8be
00000370: 3c23 91bd 6ba3 ebbe f54d b4be 2001 08be
00000380: 9904 833e 7028 c53e 1aeb febe a6a5 ab3e
00000390: 4316 46be 43e8 66be debc b53c 70ea 963e
000003a0: 8c61 393e ebf6 d23d e463 21bd 3230 d93e
000003b0: 7eed 663e 80df cfbe a4c9 c2bd 87af c6be
000003c0: 83ad 0d3d 0e4d 66be a7ae ccbe 5e74 c8be
000003d0: 732d 10bf 008a 823e 8e45 d3bd ee4a 2cbe
000003e0: 870b 093e 6e3c b2bd 6a84 0dbe 588f c43e
000003f0: ec65 be3e efa4 92be 57f5 0dbf e288 033e
-0.44122136 -0.012562224 -0.12019821 0.0396946 -0.23196383 0.015326589 -0.19838111 0.34920365
-0.037190195 -0.21658108 -0.3326736 -0.24007088 0.06573181 -0.3950608 -0.40714166 -0.3512048
-0.7244142 -0.37590387 0.30556023 0.15422112 -0.24094094 0.35830373 0.0143139595 0.26547113
-0.43336692 0.17443527 0.10118338 0.06945759 0.28107542 0.38312086 -0.08006646 -0.20173739
-0.3853487 0.32646966 -0.19851075 0.09210122 0.09596783 0.056359816 -0.09996877 0.24689287
0.31106454 0.30766594 0.16793758 0.58592397 -0.137285 -0.3841065 0.09524971 0.42519635
-0.054106634 0.12382906 -0.26812175 -0.26933268 0.27228823 -0.06315515 0.28364712 0.17103077
0.29285756 -0.29935455 -0.503865 -0.24120134 -0.39097038 0.038574934 0.06431583 -0.051656842
0.16992345 -0.21116072 -0.11800011 0.19497304 -0.08356464 -0.23398744 0.35840648 -0.3764199
-0.24852951 0.04642575 -0.26822603 -0.4338289 -0.16988045 -0.121386364 0.42045635 -0.22109677
0.21191041 -0.36488092 0.06451093 0.36180228 -0.36790505 0.3375165 -0.4945596 -0.22798675
-0.023763439 0.1681683 -0.4209766 0.17489126 0.12843658 0.26275116 -0.293431 -0.017859368
0.24512322 -0.29410097 0.26554835 -0.39531857 0.024402143 0.3486126 0.060613476 0.26502582
-0.3025477 -0.54954696 0.031787068 0.42549643 -0.15745616 -0.3656261 -0.5524929 0.27203584
-0.5125021 -0.33866692 -0.44989803 -0.48160878 0.3817254 -0.07413378 0.45660698 0.3956349
0.124846146 0.31045568 -0.28625545 0.4295501 0.06470013 0.09768848 -0.34090376 -0.3634509
-0.21648073 -0.27252772 -0.1330779 -0.3604942 -0.29989615 -0.24121837 0.06629962 0.2995423
0.11230135 -0.15841311 -0.014228719 -0.092927374 -0.0007256118 -0.29277447 -0.10976954 -0.14967352
0.2631943 0.1486164 -0.47669712 0.406403 -0.04118577 0.18072961 0.29907256 0.40534365
0.18743974 0.40718254 -0.30705917 0.009461753 -0.50914824 -0.30798006 0.0066015865 0.1454845
0.18407486 -0.047298357 -0.46684077 0.0729077 -0.08229807 0.20619993 -0.4724673 -0.4102177
0.07872585 -0.3917607 -0.061087053 0.17447846 -0.20803235 0.07189038 -0.14834172 -0.44389078
-0.014687171 -9.948863e-05 -0.14949861 -0.36817202 -0.28901723 -0.17806324 0.34590784 0.41001514
-0.21522991 -0.3527415 -0.4510113 -0.17458484 -0.054753393 -0.52762365 -0.64886063 0.052674193
-0.32054186 0.37740967 -0.38630077 0.18754567 -0.09285548 0.11010337 -0.38848245 0.41868427
-0.32971883 -0.21218392 0.015329191 -0.20320974 -0.25251156 -0.40726113 -0.2831263 0.22537597
-0.07188579 -0.31623393 0.20149884 0.21391124 -0.25664955 -0.055639498 0.41089073 0.29751983
-0.30981904 0.108640656 -0.27758664 -0.3914339 -0.070867985 -0.46023116 -0.35215726 -0.13281679
0.25589445 0.38507414 -0.49788743 0.33524817 -0.1934443 -0.22549538 0.022184785 0.29475737
0.18103617 0.10301002 -0.039401904 0.42419583 0.22551534 -0.40600204 -0.09511116 -0.38805792
0.0345893 -0.22490332 -0.39977 -0.3915128 -0.5631935 0.2549591 -0.10316001 -0.16825458
0.13383304 -0.08702932 -0.13820043 0.38390613 0.37187135 -0.2864146 -0.55452484 0.12845185

actor.mu.2.weight f4 [300, 400]
00000000: f3b7 3bbc 6777 66bb d3fd 3bbd 80ce 22bd
00000010: 2e5c 5abd 5ec8 babc 4387 b43c e0c9 423d
00000020: 60da 813c ac4d 423d 5604 e7bc e24c 51bd
00000030: c47f 86bc e039 ed3c 4377 f6bc 4066 cabb
00000040: 33db 913b 3a0c 3fbd 93cb cbbc 5ed6 943b
00000050: 17c4 95bd 8728 77bd 77bc 9ebd 2af8 6fbc
00000060: 9191 f83b 5ecd d1bd 889f 9fbb fe03 873d
00000070: 1e2f 1e3d 9a60 7c3c 0d0c 9ebb fc60 65bd
00000080: f86b f3bc 3f2f 81bd 6062 f03c 64af 89bd
00000090: cdef 443d ca8a 313d f9f6 5fbd e4f5 b7bd
000000a0: 9f3a 023c f65b c2bd ba30 4f3d 72f1 a73c
000000b0: f24d fabd a0c8 ddbd 0f54 aabd 00e1 183c
000000c0: 6643 fdbc cf76 77bc 55fd 23bd 19bb 27bd
000000d0: e9b1 47bd 20a0 7d3c 43ba 70bd 9371 e6bc
000000e0: b68f 5e3c c588 b3bd 71ba 12bd df77 1f3d
000000f0: fa18 ccbc 79bc 963d 8df3 28bd 5c38 b4bc
00000100: 045c 57bd ad6c 033c ac9c c7bd c74e fabb
00000110: 50c1 943c d34e 133d 4a2d bcbd 6738 b7bc
00000120: f75f 92bc f5d7 6bbd da03 ccbd 1946 023c
00000130: 6890 30bd 7261 91bd e9c0 2b3d 3e03 9a3b
00000140: d29a 01bb b33f 923b 0847 3dbd eb3d b0bd
00000150: c77a debc 730b c5bd 8e1d 2b3d 52ea 15bd
00000160: fcd4 04bd ad39 d6bc 0832 d03b ac99 a0bd
00000170: b532 19bd b8e7 a9bc 8038 493b f4d9 63bd
00000180: 9333 db3b 059e 90bc 4cd4 64bc ddb5 3b3d
00000190: ca3b eabc 0450 41bd e279 213d af77 503c
000001a0: 73d9 1abd 6305 dbbc 2457 bcbd 55ec bbbd
000001b0: d3b2 7f3c 1041 153d 7e5a 323d 12f6 c7bb
000001c0: ba59 cebd 9d54 093d 08a1 6d3d 279a 103c
000001d0: c3ea 8f3d a67e bbbc 92b0 b1bd a248 67bd
000001e0: d2f0 99bd 5034 21bc 9dfa c7bd 5cd0 bb3d
000001f0: 7cb5 b13c 8e9b 1f3d d3b7 5fbd 6785 28bd
00000200: dffd 973c 2ee1 773c 9da9 80bd ad58 093c
00000210: beba adbd b423 a3bd c916 e5bc 4a09 043d
00000220: d474 093d 7b61 8a3d a753 bf3c e0e2 febd
00000230: d93e b1bd 1619 4f3d f99c bebc 332b 4bba
00000240: 9a2c ca3b a644 6e3c 72d3 d2bc 2288 e5bd
00000250: 9ee1 87bd 8dd8 75bd 8b40 0ebc 0e75 15bd
00000260: 37aa ffbc 6b72 893d 66cb 04bd b0cd 13bd
00000270: 1e85 92bd 7f54 e8bc 4264 86bc 9d4d 9ebc
00000280: 1727 86bd ec03 d33c bb7e 54bd a3bd f73c
00000290: 9a3f 123a aca0 b13c e01d be3c 1a5f 383c
000002a0: ca55 e3bc 58a2 a7bc 0f8a 20bd c17f ff3a
000002b0: 7ffe 62bd 4a4f 07bd 7c46 9abd 69b8 97bc
000002c0: 2551 27bd f346 ecbd fe42 cc3b a84c 9ebb
000002d0: e1c3 b93c 1ff6 b5bd 6933 0dbd e13f 5fbc
000002e0: 3c1c 6bbd d6d0 8cbd 5ad9 5dbd 57a8 03be
000002f0: ea3b 04be c798 79bb 5d7d 2d3c ee8c 8a3c
00000300: 6265 41bd 6d70 0dbd bd9a a3bd ee48 1cbd
00000310: 9f36 a5bc 5fce ff3c 272d 8cbd 7cf9 bebb
00000320: 81f4 aebb cdb9 5abd fb97 c9bd 7655 79bd
00000330: 1e27 b6bd fd54 2ebd d9f1 8cbd 4b13 83bd
00000340: 424f a0bc 4956 5dbd 941d 55bd 8f65 af3c
00000350: bc86 f939 e794 55bd e2ae 4f3b f26d adbd
00000360: a520 f3bc d5a6 03bd 9a6b ca3a 7d0e c0bc
00000370: 7a9c 33bd 15af cebd 722e 27bd d82e d93b
00000380: f891 72bc 0062 19bd b50f 38bd 76c0 20bd
00000390: be44 4a3d 33c2 323b bfa3 3fbd a1a8 6bbd
000003a0: 3157 47bd cb9b 46bc c88a 7d3c 817e b7bc
000003b0: e047 623d 908d 233d 6ab9 1e3d 008e 06bc
000003c0: 2880 babc 6be5 04bd a051 c63c 6223 d9bd
000003d0: d31a 98bb de27 14bd e27a 2c3c e95e 29bd
000003e0: a093 b33d 7e07 81bc fdd1 15bd f380 e0ba
000003f0: 92da 38bc 0f3a 2f3d 8a4d 6bbd 797d a2bd
-0.011457431 -0.0035166384 -0.045896363 -0.039747715 -0.053310566 -0.02280062 0.022037154 0.047555804
0.0158512 0.047437355 -0.02820031 -0.05109871 -0.016418345 0.028958261 -0.030086165 -0.00617674
0.0044511794 -0.04664252 -0.024877345 0.004542156 -0.07312792 -0.060341384 -0.077507906 -0.014646569
0.0075857122 -0.10244249 -0.0048713125 0.06592558 0.038619153 0.015403891 -0.004823214 -0.056000695
-0.02971457 -0.063078396 0.029343784 -0.06722906 0.048080254 0.04334525 -0.05467889 -0.08982447
0.007948547 -0.094901964 0.05058358 0.020500872 -0.12221898 -0.10829282 -0.08316814 0.009330988
-0.030915927 -0.01510401 -0.040036518 -0.040949915 -0.048753653 0.015480071 -0.058771383 -0.028130328
0.013584068 -0.08766321 -0.035822336 0.038932677 -0.024914254 0.07360167 -0.041247893 -0.02199953
-0.052577987 0.008021516 -0.0974668 -0.0076387855 0.018158585 0.035963845 -0.09188326 -0.022365762
-0.017868025 -0.057579 -0.09961672 0.007951283 -0.043106467 -0.07098664 0.04193202 0.0047000935
-0.0019776118 0.00446316 -0.04621032 -0.0860556 -0.027158154 -0.096213244 0.041776232 -0.03660042
-0.03242968 -0.026150549 0.0063536204 -0.078418106 -0.037401874 -0.020740375 0.0030703843 -0.05562778
0.0066894977 -0.017653475 -0.013966631 0.045827735 -0.028592963 -0.04719545 0.039422877 0.012723847
-0.037805032 -0.026735967 -0.09196308 -0.09175936 0.0156066 0.036439 0.04354333 -0.006102332
-0.10075708 0.03352796 0.0580149 0.008825815 0.07027199 -0.02288754 -0.08676256 -0.056465752
-0.07516636 -0.009839132 -0.097645976 0.09170601 0.021692984 0.038966708 -0.054618668 -0.041142847
0.018553672 0.015129371 -0.06282351 0.008382958 -0.08482884 -0.07965794 -0.027964966 0.03223542
0.03355868 0.06756874 0.023355318 -0.12445617 -0.08654565 0.050561033 -0.02326821 -0.00077502726
0.0061698677 0.014542734 -0.02573559 -0.11207606 -0.0663483 -0.060020972 -0.00868238 -0.036488585
-0.031209094 0.067112766 -0.03242054 -0.03608483 -0.07154296 -0.028360603 -0.016405229 -0.019324118
-0.065504245 0.025758706 -0.051878672 0.030241793 0.00055789354 0.02168306 0.023207605 0.011253143
-0.027750868 -0.020463154 -0.039194163 0.001949303 -0.055418488 -0.0330346 -0.07532975 -0.01852055
-0.04084887 -0.1153697 0.006233572 -0.0048309155 0.02267641 -0.088848345 -0.034472857 -0.01362607
-0.057399973 -0.0687577 -0.05416236 -0.12857185 -0.1291348 -0.0038085447 0.010588971 0.016912904
-0.047215827 -0.034531046 -0.07988498 -0.03815549 -0.020167647 0.031226335 -0.068445496 -0.0058280807
-0.0053392057 -0.05339985 -0.09843441 -0.060872518 -0.0889418 -0.04256152 -0.06882066 -0.06400164
-0.019569043 -0.054037366 -0.05203016 0.021410732 0.00047593366 -0.052143957 0.0031689932 -0.08468236
-0.029678652 -0.032141525 0.0015443445 -0.023444409 -0.0438504 -0.10091988 -0.040815778 0.0066278987
-0.0148053095 -0.037446976 -0.044936854 -0.039246045 0.049381964 0.0027276396 -0.04678702 -0.057533864
-0.048667137 -0.012122105 0.015474983 -0.022399189 0.055244327 0.039929926 0.038751043 -0.008212566
-0.022766188 -0.032445353 0.024208844 -0.10602452 -0.0046418696 -0.036170833 0.010527344 -0.04135028
0.087683916 -0.015750643 -0.036577214 -0.0017128274 -0.01128258 0.04277998 -0.057446994 -0.07934088

actor.mu.2.bias f4 [300]
00000000: 7144 87bd 6f78 cebc dd0e b2bc c8d3 b33a
00000010: 5519 1bbd 8afc 70ba dfc4 aabc 95a3 3cbd
00000020: 9201 a8bd 4e56 c63c 743d 83bc e966 6cbc
00000030: 126a c0bc 3ab2 3dbd 1bf7 75bd 3f3b 8fbd
00000040: 090f 1bbd 9659 b6bd 19b9 9bbd f21f 00bd
00000050: a336 ecbc 2525 80bd a3a7 37bd a037 6abc
00000060: 74e7 a4bc 0eda 52bd ce27 d03d 1965 87bb
00000070: 7bce 88bd bf45 39bc cbd2 abbd f30c 17bd
00000080: 2ca9 8bbd ce01 3abc ef44 fb3b f566 0bbd
00000090: 5afb bbbc 4537 0dbe 5595 b03d c67e c4bc
000000a0: f031 3bbd 9dd1 32bd d0ff ee3d 5885 0b3e
000000b0: 8b76 513d f0e6 63be 7bdc a4bc 1c95 3abd
000000c0: c4b6 edbc 8fc5 fbbd 82bb 84bd 2ff3 8e3c
000000d0: 2af3 49bc 4dae 09bd cd97 f93a 8c4c 11bd
000000e0: 74c5 80bd 7797 49bd 3a0c 923c c760 ffbd
000000f0: 4483 72bc 1fa6 44bd 6cdb c8bc 279c 8cbd
00000100: 82a0 99ba d4fd 42bd dc48 e4bc a665 4dbe
00000110: b334 a3bc 0f38 0dbd 6a40 edbb 3b29 0c3c
00000120: 1c83 2ebd 40d3 55bb 51e3 a13d d7e4 a4bc
00000130: 883f dcbc bb53 673d 985f bfbb fd14 ddbd
00000140: 0cd8 763d 14f9 44bd 7c0f 35bd 04b3 5f3d
00000150: 1e9c 57bc 774d 4bbd ebd2 76bd 1f8d b5bc
00000160: 03b3 e7bc 4cec 74bd 9095 2bbd 2afe 5539
00000170: d3c7 b93c c6d4 cbbd aa24 21bd 008c 0bbd
00000180: 8b9e 4abe 3d58 4cbd 361f 93bd fc46 b13c
00000190: b392 08bd 9b25 073e 3341 b2bd a150 acbd
000001a0: 7476 573e 864a 14bc a77d f4ba 24ce 42be
000001b0: e0f7 47bd 7951 ed3d 47ff 01bd a7a5 863c
000001c0: 685b 9bbd dc1f 0ebd 4ce7 5ebe 1b86 03bd
000001d0: d9bf 5abe c01d 4fbd 13a5 5ebd 385e 6f3e
000001e0: e24a 653e c05a ddba 59c4 3bbd fdcc e5bc
000001f0: 3e21 883b 191a 35bd f6b9 43bd 1e21 1abd
00000200: 7b3e aabc 13a3 d0bb 5313 a3bc 6a91 97bd
00000210: 2061 99bc ad13 493e 6b05 0b3c 8469 edbc
00000220: 5ff7 1cbc 9f10 0bbd 942c e9bc e1c0 6f3d
00000230: 1b1a ae3d 8780 4dbd 3543 82be 2811 b0bd
00000240: 1b9a 1fbd d9d7 8ebd 7106 3cbd e078 2ebe
00000250: 947a 0b3d 6d22 afbd 9222 903d 0739 0cbd
00000260: 5174 10bd f7d2 83bd c49e a2bc 10c8 2f3b
00000270: d835 69bd 4bcf 073b 5560 41bd f782 4bbd
00000280: 11ad 05bd 057a 9abd d697 a3bd 3a9a 3cbd
00000290: 6e84 10be 925d e6bb 6710 b6be 302d 21bd
000002a0: 0c66 14bb 9c98 37bd 912e 403d 1596 f6bb
000002b0: 68f6 b7bd 433c ecbc 6391 1e3e 7e5d e7bd
000002c0: 3cb4 a1bd 7aa4 1abd bfdf 14bd 516f e73b
000002d0: 9113 03bd 5059 a0bd d2bf a6bd c9b6 90bd
000002e0: 7349 073c ffad cb3d 25ae 9bbd ac7e abbc
000002f0: a742 c2bc abb7 01bd c2bc 223d 9cce 35bd
00000300: 1f53 1fbd ebb2 723b feaa de3b f0bf f9ba
00000310: 1467 98bd c0be 31bd 35a5 7fbd c158 d0bd
00000320: 21e2 bbbc 1b2d 413b 0503 08bd 43f1 5dbd
00000330: ca6c 3dbd 1c54 373c 998f 30be 1251 cebd
00000340: c62a 923d 477d dfbd a5aa 8cbc 090c 0bbc
00000350: e458 20bd 9741 06be 438e 9e3b fdc6 a3bd
00000360: eabb 97bc b291 f53d b5bc 56bb 0535 21bd
00000370: 0c32 00bc 2b0d 67bd c290 32bb 92da 2bbd
00000380: 9f1b e8bd 8c6e f6bc 9b30 86bd d35c ef3a
00000390: b8ba 073d 1651 903c d1d9 d7bc 8dd7 b2bc
000003a0: 4a47 00bd 92da b63d 8f69 763b a112 b8bd
000003b0: 7f84 a5bc 3c12 a5bd 556d 92bd d340 57bd
000003c0: 520e 27bd 07e7 84bd 28dc 56bd d88f 3b3d
000003d0: 5a0b 77bd d195 ecbc 61d5 093d ede6 b0bc
000003e0: 8203 19bd 9686 8fbd 7dcd f2bd a955 c13d
000003f0: bace 90bc a052 0bbd f767 31bd e957 6fbd
-0.06604851 -0.025203912 -0.021735603 0.0013719732 -0.037865955 -0.00091929047 -0.020845829 -0.04605444
-0.082034245 0.024211075 -0.016020514 -0.014428833 -0.023488078 -0.04631255 -0.06005011 -0.06993722
-0.037856136 -0.08903806 -0.07603664 -0.031280465 -0.028834647 -0.06257085 -0.044837605 -0.014295489
-0.020129897 -0.051477484 0.10163842 -0.004131925 -0.06680008 -0.011308133 -0.08389815 -0.036877584
-0.06819376 -0.011352969 0.0076681296 -0.034033734 -0.022947002 -0.13790615 0.08622233 -0.023986232
-0.04570192 -0.043656934 0.11669886 0.13625085 0.051138442 -0.22256064 -0.020124665 -0.045552358
-0.029017814 -0.12293541 -0.06481077 0.017449943 -0.012326041 -0.03361349 0.0019042433 -0.03547339
-0.06287661 -0.049216714 0.017828096 -0.12469631 -0.014801804 -0.048009988 -0.024518691 -0.06865721
-0.0011720809 -0.04760535 -0.027866773 -0.20058307 -0.01992259 -0.03447729 -0.007240345 0.008554752
-0.042605504 -0.0032627136 0.07904685 -0.02012865 -0.026885763 0.056476336 -0.005840253 -0.10795019
0.060264632 -0.048089102 -0.04420422 0.054614082 -0.01315978 -0.049634423 -0.06025974 -0.022162018
-0.028283602 -0.059795663 -0.04189068 0.00020407946 0.022678291 -0.09952693 -0.039341606 -0.03406906
-0.19787042 -0.049888838 -0.071836874 0.021640293 -0.03334303 0.13197939 -0.08703842 -0.08413816
0.2104128 -0.009050971 -0.001865317 -0.19023949 -0.048820376 0.11587805 -0.031737592 0.016436411
-0.07585794 -0.034698352 -0.2176792 -0.032110315 -0.21362247 -0.05056548 -0.054356646 0.23375785
0.22391847 -0.0016888008 -0.04584155 -0.028051848 0.0041543534 -0.04421434 -0.047784768 -0.03762924
-0.020781746 -0.006367096 -0.019906675 -0.074007824 -0.01872307 0.19636412 0.008485178 -0.028980978
-0.009580462 -0.033951398 -0.02846364 0.058533553 0.08501073 -0.0501714 -0.254419 -0.08597022
-0.038965326 -0.069747634 -0.04590458 -0.17038298 0.034052446 -0.08551488 0.07037844 -0.034234073
-0.035267178 -0.06436723 -0.019851096 0.0026822127 -0.056936115 0.0020722921 -0.04721101 -0.049685445
-0.032635752 -0.07542805 -0.07987945 -0.04604552 -0.14113018 -0.0070301974 -0.3555939 -0.039349735
-0.0022643832 -0.044823274 0.04691941 -0.0075252154 -0.08982545 -0.028837329 0.15485148 -0.11297129
-0.07895705 -0.037754513 -0.036346193 0.0070628305 -0.03200108 -0.07829535 -0.081420556 -0.070661135
0.008257258 0.099452965 -0.07601575 -0.020934425 -0.023713423 -0.0316693 0.039730795 -0.04438649
-0.03889763 0.0037032913 0.006795286 -0.0019054394 -0.074415356 -0.043394804 -0.062413413 -0.101731785
-0.022934975 0.0029476348 -0.033206005 -0.054185163 -0.046246327 0.011189487 -0.17242278 -0.10074057
0.07137065 -0.10912567 -0.017171213 -0.008486756 -0.039147273 -0.13110958 0.0048387363 -0.079969384
-0.018522222 0.1199068 -0.0032766287 -0.039357204 -0.007824432 -0.056409042 -0.0027246927 -0.04195649
-0.11333393 -0.03008201 -0.065522395 0.0018261917 0.033137053 0.01761679 -0.02634898 -0.021831298
-0.031317987 0.08928408 0.003759954 -0.08987928 -0.02020478 -0.080601186 -0.0714976 -0.052552056
-0.04078514 -0.064893775 -0.05245605 0.045791477 -0.06031356 -0.028880032 0.03365076 -0.021594489
-0.03735686 -0.07008092 -0.118556 0.094401665 -0.0176767 -0.034014344 -0.04331204 -0.058433447

actor.mu.4.weight f4 [6, 300]
00000000: d238 523d 6655 2dbd 1351 eebc ce88 683c
00000010: e126 0e3d 18b7 bd3c a25d 08bd c280 10bb
00000020: b1ca 62bd 0df5 87bf b115 2e3d e436 7a3c
00000030: 1d65 ccbc b8d1 b5bd cc2c 543d de04 cfbd
00000040: 139a 4b3c 2889 21bd 0f28 003d ca7c bd3c
00000050: 8e9b 2f3d eb56 d73c 54b9 d03c 52fc b43c
00000060: f957 e73c 6286 dfbc 2a1c da3c 7b8e 8eba
00000070: 6b07 8c3b 2666 27bb 622a 1abd dfb0 a4bd
00000080: f813 2dbd b688 1fbd 9711 35bd 0301 f63c
00000090: 2069 d7bc 3725 0fbe 901a e23e ec3f 3a3d
000000a0: 14b4 393d d5f1 adbe 3451 143b 2f03 3ebb
000000b0: f3ff a4ba 36cb b339 3318 48bc f91e a9bc
000000c0: 7d6d 4f3c 3a44 fd3c 1621 403d 1f8e 0dbb
000000d0: e02d b33a fc4e 1140 67a8 1ebc 0839 9abb
000000e0: 6c97 593c 0a4a 863c ae68 79bd c311 0abc
000000f0: af18 1cbb 65b6 adbc 4b71 5abc ffa0 aabc
00000100: 75e2 efbc 4a84 51ba ecc8 2d3d 6e7f 33bc
00000110: 6401 0abe 0354 41bd f71a a0bd 22f0 99bc
00000120: 2447 b33c f9bc 213d 1544 fc3e fef2 acbc
00000130: 3da6 bcbc d8f0 813d 08b4 953c e981 583d
00000140: c2e0 183b e1bf 58bd bb50 3fbd 5cfb a8bc
00000150: 0550 91bc df60 b7bc 034f 4d3d af72 453d
00000160: b006 5e3d bc70 953d 5883 53bd 25d0 4c3c
00000170: 8b6f 2b3f 3e40 343d 2d1e 64bd 2e06 8f3b
00000180: 1d0f 35bc 5778 a93d 44e7 803d f712 8dbc
00000190: 9cf9 8cbd bb90 7e3f 7ac0 e33a 6558 a7bc
000001a0: c31a d9bb 52b1 29bc 2286 48bd 0cf6 9cbb
000001b0: f76e 0cbd 754b d53b ba1a b6bc a43f 0cbd
000001c0: 71e4 303d 96e1 47bd 0e88 5d3c 1dde 77ba
000001d0: f6ec 74bc 54df 8b3d 2b8e 0a3e e063 d13b
000001e0: 22be 963b 5684 64bc de29 e1bc 6cf3 003d
000001f0: 0032 30bd 1c0e 8bbc f870 0e3d 46e0 1bbd
00000200: a716 7a3b 6f34 d83c 3e33 74bc b602 04bd
00000210: ceca 353d 3bf7 9f3d 7cef 91bc 848e d83c
00000220: ea26 0c3d dde9 6fbd df71 5b3c 8295 103e
00000230: e83d a7bc f474 3d3b cb3c 003b 37b9 f1bb
00000240: 8cb8 a3bc 1d3c 103b 1e95 90bd 336b d03d
00000250: 2556 24bc 583a 96bd d9a7 10bf 4c6c 293d
00000260: 9bf0 5f3c b9e7 053d 14dc 18b9 713d 26bd
00000270: ccda 0dbc 7000 e23c b5de ec3a b18a 56bb
00000280: 072c 33bd 7355 5ebf 7bbc 153d 35d5 593c
00000290: 21a0 7e3f ec3f a33c c9ba 90c0 4446 7abc
000002a0: 64ca 383c bf6f 8aba 222e bc3c 8b68 96bd
000002b0: 0dbc 173d 744a dcbc e5b3 e63c 07fe 34bd
000002c0: 8b77 e4bb 1611 083d 3104 1d3d 0530 b6bc
000002d0: 89c6 b8bc 3551 603b 0004 6cbd cf22 efbc
000002e0: 3c4c a43c 505e ffbd 4b6c 28bc e719 18bb
000002f0: f072 41bd 498a 163d a5b7 353c 35d4 d2b9
00000300: e130 bebc 74b4 923d d84e c23b 2451 bd3c
00000310: 00dd 2c3d 0cf5 313d 48e5 f0ba 5862 a53d
00000320: e540 58bd b632 05bd 8f7c 38bd 8ec3 e0bc
00000330: 5871 97bc e672 123d c1b2 9cbb 905b bebd
00000340: 7d31 263d 0510 a23c e9f6 8bbc 82ea f43c
00000350: cfd5 a9bc ca4f b9ba f07c b1bc 363a b1ba
00000360: 7ea4 963c b975 493c 8741 00be dcdd c73c
00000370: 5aa5 e83c d918 f83b 23b1 083a 5d75 17bd
00000380: dc9f 12bd f136 e4bb 04f9 f7bd 0ebc 14bb
00000390: 7b4d 3b3c e0ac a7bd f1b2 31bb 53cb f9bc
000003a0: 4e1f 893e 064b 45bd 4f0f c5bc b049 143c
000003b0: fc61 a23c 0169 74bd e18c 41bd b983 eb3c
000003c0: 0865 f33b 3895 643e 038b 24bd e532 50bb
000003d0: fdf8 52ba 1a72 b73c 527e d9bb 644f fd3c
000003e0: a41b 5ebc 21a4 bfbc cf58 ef3d ef80 d43b
000003f0: c39a 5dbd 540f 773d 4d34 86bd 6a95 6cbd
0.05132372 -0.04231777 -0.029091394 0.014192773 0.034705047 0.023158595 -0.03329242 -0.0022049402
-0.055369083 -1.0621659 0.042501155 0.015271876 -0.024950558 -0.08877891 0.051800534 -0.1010835
0.012426871 -0.039437443 0.031288203 0.023130793 0.042872958 0.026286563 0.025478996 0.022092972
0.02824019 -0.027285758 0.026624758 -0.0010876203 0.004273345 -0.0025543063 -0.037638076 -0.08041548
-0.04225537 -0.038948737 -0.044206228 0.03002978 -0.026295245 -0.1397904 0.4416089 0.045471117
0.04533775 -0.33973566 0.0022631409 -0.0028993597 -0.0012588486 0.00034292944 -0.012212801 -0.020644652
0.012660381 0.030916322 0.046906553 -0.0021599603 0.0013670288 2.2704458 -0.009683705 -0.0047065057
0.013280731 0.016392726 -0.060890846 -0.008427086 -0.0023818424 -0.021205137 -0.013332675 -0.020828722
-0.029282788 -0.000799243 0.042427942 -0.010955675 -0.13477093 -0.04719926 -0.07817643 -0.018791262
0.021884508 0.03948686 0.49270692 -0.021111961 -0.023028487 0.063447654 0.018274322 0.052858267
0.0023327325 -0.052917365 -0.04670785 -0.02062767 -0.017738352 -0.022385059 0.05012418 0.048205074
0.054205596 0.07296893 -0.05163893 0.012500797 0.66967076 0.04400658 -0.05569284 0.0043647503
-0.011050967 0.08274906 0.062941104 -0.017220957 -0.06883547 0.9943959 0.0017376088 -0.020427892
-0.0066255047 -0.010357218 -0.048956044 -0.0047900733 -0.03428551 0.0065092393 -0.022229541 -0.03424038
0.04318661 -0.04879912 0.0135212075 -0.00094553997 -0.014949074 0.06829706 0.13530795 0.00639008
0.0046003023 -0.013947567 -0.027485784 0.031482145 -0.043016434 -0.016974501 0.034775704 -0.03805568
0.0038160475 0.02639219 -0.014904795 -0.032229148 0.044382863 0.07810827 -0.01781439 0.026435144
0.0342168 -0.05857264 0.013393848 0.14119533 -0.020415261 0.002890882 0.0019567485 -0.0073768157
-0.01998546 0.0022008487 -0.07059692 0.10176697 -0.010030304 -0.07335347 -0.56506115 0.041363046
0.013668205 0.03269169 -0.00014577835 -0.04058594 -0.008658122 0.0275881 0.0018071743 -0.0032736475
-0.04374316 -0.86849135 0.036556702 0.013295461 0.9946309 0.019927941 -4.522801 -0.015275542
0.011278722 -0.0010561867 0.022971217 -0.07344159 0.037044574 -0.02689097 0.028161952 -0.04418757
-0.0069722584 0.03321942 0.038334075 -0.022239694 -0.022555606 0.003422809 -0.057621002 -0.029191403
0.020055883 -0.124691606 -0.010279725 -0.0023208798 -0.047228754 0.036752973 0.011091148 -0.00040212428
-0.023216667 0.07163325 0.005929809 0.02310998 0.04220295 0.043446586 -0.0018378878 0.08075398
-0.052796263 -0.032519065 -0.045040663 -0.027436998 -0.018486664 0.035754107 -0.0047820513 -0.09294808
0.04057454 0.01978303 -0.01708551 0.029896978 -0.020731835 -0.0014138159 -0.02166602 -0.0013521377
0.018388983 0.012296134 -0.12524997 0.024397783 0.028399158 0.0075713214 0.0005214384 -0.03697716
-0.035796985 -0.0069645573 -0.12108043 -0.0022695097 0.011432047 -0.0818727 -0.0027114714 -0.03049246
0.26781696 -0.04816725 -0.024055151 0.009050772 0.019822113 -0.059670452 -0.047253493 0.028749334
0.0074278153 0.22322547 -0.040171634 -0.0031768617 -0.00080479664 0.022393275 -0.006637373 0.030921645
-0.013556395 -0.023393692 0.11686861 0.0064850966 -0.05410267 0.060317352 -0.06552944 -0.05775968

actor.mu.4.bias f4 [6]
00000000: 8afe 303c 398c c63b ac23 513c 9969 483c
00000010: 9260 2e3c 883b 7a3c
0.010802874 0.0060591963 0.0127648525 0.012232208 0.010643141 0.015272982
